…
I0804 19:42:10.621417 27590 upgrade_proto.cpp:77] Attempting to upgrade batch norm layers using deprecated params: ./zhang/colorization/models/colorization_deploy_v2.prototxt
I0804 19:42:10.621446 27590 upgrade_proto.cpp:80] Successfully upgraded batch norm layers using deprecated params.
I0804 19:42:10.621711 27590 net.cpp:51] Initializing net from parameters: 
name: "LtoAB"
state {
  phase: TEST
  level: 0
}
layer {
  name: "data_l"
  type: "Input"
  top: "data_l"
  input_param {
    shape {
      dim: 1
      dim: 1
      dim: 224
      dim: 224
    }
  }
}
layer {
  name: "bw_conv1_1"
  type: "Convolution"
  bottom: "data_l"
  top: "conv1_1"
  convolution_param {
    num_output: 64
    pad: 1
    kernel_size: 3
  }
}
layer {
  name: "relu1_1"
  type: "ReLU"
  bottom: "conv1_1"
  top: "conv1_1"
}
layer {
  name: "conv1_2"
  type: "Convolution"
  bottom: "conv1_1"
  top: "conv1_2"
  convolution_param {
    num_output: 64
    pad: 1
    kernel_size: 3
    stride: 2
  }
}
layer {
  name: "relu1_2"
  type: "ReLU"
  bottom: "conv1_2"
  top: "conv1_2"
}
layer {
  name: "conv1_2norm"
  type: "BatchNorm"
  bottom: "conv1_2"
  top: "conv1_2norm"
  param {
    lr_mult: 0
    decay_mult: 0
  }
  param {
    lr_mult: 0
    decay_mult: 0
  }
  param {
    lr_mult: 0
    decay_mult: 0
  }
  batch_norm_param {
  }
}
layer {
  name: "conv2_1"
  type: "Convolution"
  bottom: "conv1_2norm"
  top: "conv2_1"
  convolution_param {
    num_output: 128
    pad: 1
    kernel_size: 3
  }
}
layer {
  name: "relu2_1"
  type: "ReLU"
  bottom: "conv2_1"
  top: "conv2_1"
}
layer {
  name: "conv2_2"
  type: "Convolution"
  bottom: "conv2_1"
  top: "conv2_2"
  convolution_param {
    num_output: 128
    pad: 1
    kernel_size: 3
    stride: 2
  }
}
layer {
  name: "relu2_2"
  type: "ReLU"
  bottom: "conv2_2"
  top: "conv2_2"
}
layer {
  name: "conv2_2norm"
  type: "BatchNorm"
  bottom: "conv2_2"
  top: "conv2_2norm"
  param {
    lr_mult: 0
    decay_mult: 0
  }
  param {
    lr_mult: 0
    decay_mult: 0
  }
  param {
    lr_mult: 0
    decay_mult: 0
  }
  batch_norm_param {
  }
}
layer {
  name: "conv3_1"
  type: "Convolution"
  bottom: "conv2_2norm"
  top: "conv3_1"
  convolution_param {
    num_output: 256
    pad: 1
    kernel_size: 3
  }
}
layer {
  name: "relu3_1"
  type: "ReLU"
  bottom: "conv3_1"
  top: "conv3_1"
}
layer {
  name: "conv3_2"
  type: "Convolution"
  bottom: "conv3_1"
  top: "conv3_2"
  convolution_param {
    num_output: 256
    pad: 1
    kernel_size: 3
  }
}
layer {
  name: "relu3_2"
  type: "ReLU"
  bottom: "conv3_2"
  top: "conv3_2"
}
layer {
  name: "conv3_3"
  type: "Convolution"
  bottom: "conv3_2"
  top: "conv3_3"
  convolution_param {
    num_output: 256
    pad: 1
    kernel_size: 3
    stride: 2
  }
}
layer {
  name: "relu3_3"
  type: "ReLU"
  bottom: "conv3_3"
  top: "conv3_3"
}
layer {
  name: "conv3_3norm"
  type: "BatchNorm"
  bottom: "conv3_3"
  top: "conv3_3norm"
  param {
    lr_mult: 0
    decay_mult: 0
  }
  param {
    lr_mult: 0
    decay_mult: 0
  }
  param {
    lr_mult: 0
    decay_mult: 0
  }
  batch_norm_param {
  }
}
layer {
  name: "conv4_1"
  type: "Convolution"
  bottom: "conv3_3norm"
  top: "conv4_1"
  convolution_param {
    num_output: 512
    pad: 1
    kernel_size: 3
    stride: 1
    dilation: 1
  }
}
layer {
  name: "relu4_1"
  type: "ReLU"
  bottom: "conv4_1"
  top: "conv4_1"
}
layer {
  name: "conv4_2"
  type: "Convolution"
  bottom: "conv4_1"
  top: "conv4_2"
  convolution_param {
    num_output: 512
    pad: 1
    kernel_size: 3
    stride: 1
    dilation: 1
  }
}
layer {
  name: "relu4_2"
  type: "ReLU"
  bottom: "conv4_2"
  top: "conv4_2"
}
layer {
  name: "conv4_3"
  type: "Convolution"
  bottom: "conv4_2"
  top: "conv4_3"
  convolution_param {
    num_output: 512
    pad: 1
    kernel_size: 3
    stride: 1
    dilation: 1
  }
}
layer {
  name: "relu4_3"
  type: "ReLU"
  bottom: "conv4_3"
  top: "conv4_3"
}
layer {
  name: "conv4_3norm"
  type: "BatchNorm"
  bottom: "conv4_3"
  top: "conv4_3norm"
  param {
    lr_mult: 0
    decay_mult: 0
  }
  param {
    lr_mult: 0
    decay_mult: 0
  }
  param {
    lr_mult: 0
    decay_mult: 0
  }
  batch_norm_param {
  }
}
layer {
  name: "conv5_1"
  type: "Convolution"
  bottom: "conv4_3norm"
  top: "conv5_1"
  convolution_param {
    num_output: 512
    pad: 2
    kernel_size: 3
    stride: 1
    dilation: 2
  }
}
layer {
  name: "relu5_1"
  type: "ReLU"
  bottom: "conv5_1"
  top: "conv5_1"
}
layer {
  name: "conv5_2"
  type: "Convolution"
  bottom: "conv5_1"
  top: "conv5_2"
  convolution_param {
    num_output: 512
    pad: 2
    kernel_size: 3
    stride: 1
    dilation: 2
  }
}
layer {
  name: "relu5_2"
  type: "ReLU"
  bottom: "conv5_2"
  top: "conv5_2"
}
layer {
  name: "conv5_3"
  type: "Convolution"
  bottom: "conv5_2"
  top: "conv5_3"
  convolution_param {
    num_output: 512
    pad: 2
    kernel_size: 3
    stride: 1
    dilation: 2
  }
}
layer {
  name: "relu5_3"
  type: "ReLU"
  bottom: "conv5_3"
  top: "conv5_3"
}
layer {
  name: "conv5_3norm"
  type: "BatchNorm"
  bottom: "conv5_3"
  top: "conv5_3norm"
  param {
    lr_mult: 0
    decay_mult: 0
  }
  param {
    lr_mult: 0
    decay_mult: 0
  }
  param {
    lr_mult: 0
    decay_mult: 0
  }
  batch_norm_param {
  }
}
layer {
  name: "conv6_1"
  type: "Convolution"
  bottom: "conv5_3norm"
  top: "conv6_1"
  convolution_param {
    num_output: 512
    pad: 2
    kernel_size: 3
    dilation: 2
  }
}
layer {
  name: "relu6_1"
  type: "ReLU"
  bottom: "conv6_1"
  top: "conv6_1"
}
layer {
  name: "conv6_2"
  type: "Convolution"
  bottom: "conv6_1"
  top: "conv6_2"
  convolution_param {
    num_output: 512
    pad: 2
    kernel_size: 3
    dilation: 2
  }
}
layer {
  name: "relu6_2"
  type: "ReLU"
  bottom: "conv6_2"
  top: "conv6_2"
}
layer {
  name: "conv6_3"
  type: "Convolution"
  bottom: "conv6_2"
  top: "conv6_3"
  convolution_param {
    num_output: 512
    pad: 2
    kernel_size: 3
    dilation: 2
  }
}
layer {
  name: "relu6_3"
  type: "ReLU"
  bottom: "conv6_3"
  top: "conv6_3"
}
layer {
  name: "conv6_3norm"
  type: "BatchNorm"
  bottom: "conv6_3"
  top: "conv6_3norm"
  param {
    lr_mult: 0
    decay_mult: 0
  }
  param {
    lr_mult: 0
    decay_mult: 0
  }
  param {
    lr_mult: 0
    decay_mult: 0
  }
  batch_norm_param {
  }
}
layer {
  name: "conv7_1"
  type: "Convolution"
  bottom: "conv6_3norm"
  top: "conv7_1"
  convolution_param {
    num_output: 512
    pad: 1
    kernel_size: 3
    dilation: 1
  }
}
layer {
  name: "relu7_1"
  type: "ReLU"
  bottom: "conv7_1"
  top: "conv7_1"
}
layer {
  name: "conv7_2"
  type: "Convolution"
  bottom: "conv7_1"
  top: "conv7_2"
  convolution_param {
    num_output: 512
    pad: 1
    kernel_size: 3
    dilation: 1
  }
}
layer {
  name: "relu7_2"
  type: "ReLU"
  bottom: "conv7_2"
  top: "conv7_2"
}
layer {
  name: "conv7_3"
  type: "Convolution"
  bottom: "conv7_2"
  top: "conv7_3"
  convolution_param {
    num_output: 512
    pad: 1
    kernel_size: 3
    dilation: 1
  }
}
layer {
  name: "relu7_3"
  type: "ReLU"
  bottom: "conv7_3"
  top: "conv7_3"
}
layer {
  name: "conv7_3norm"
  type: "BatchNorm"
  bottom: "conv7_3"
  top: "conv7_3norm"
  param {
    lr_mult: 0
    decay_mult: 0
  }
  param {
    lr_mult: 0
    decay_mult: 0
  }
  param {
    lr_mult: 0
    decay_mult: 0
  }
  batch_norm_param {
  }
}
layer {
  name: "conv8_1"
  type: "Deconvolution"
  bottom: "conv7_3norm"
  top: "conv8_1"
  convolution_param {
    num_output: 256
    pad: 1
    kernel_size: 4
    stride: 2
    dilation: 1
  }
}
layer {
  name: "relu8_1"
  type: "ReLU"
  bottom: "conv8_1"
  top: "conv8_1"
}
layer {
  name: "conv8_2"
  type: "Convolution"
  bottom: "conv8_1"
  top: "conv8_2"
  convolution_param {
    num_output: 256
    pad: 1
    kernel_size: 3
    dilation: 1
  }
}
layer {
  name: "relu8_2"
  type: "ReLU"
  bottom: "conv8_2"
  top: "conv8_2"
}
layer {
  name: "conv8_3"
  type: "Convolution"
  bottom: "conv8_2"
  top: "conv8_3"
  convolution_param {
    num_output: 256
    pad: 1
    kernel_size: 3
    dilation: 1
  }
}
layer {
  name: "relu8_3"
  type: "ReLU"
  bottom: "conv8_3"
  top: "conv8_3"
}
layer {
  name: "conv8_313"
  type: "Convolution"
  bottom: "conv8_3"
  top: "conv8_313"
  convolution_param {
    num_output: 313
    kernel_size: 1
    stride: 1
    dilation: 1
  }
}
layer {
  name: "conv8_313_rh"
  type: "Scale"
  bottom: "conv8_313"
  top: "conv8_313_rh"
  scale_param {
    filler {
      type: "constant"
      value: 2.606
    }
    bias_term: false
  }
}
layer {
  name: "class8_313_rh"
  type: "Softmax"
  bottom: "conv8_313_rh"
  top: "class8_313_rh"
}
layer {
  name: "class8_ab"
  type: "Convolution"
  bottom: "class8_313_rh"
  top: "class8_ab"
  convolution_param {
    num_output: 2
    kernel_size: 1
    stride: 1
    dilation: 1
  }
}
layer {
  name: "Silence"
  type: "Silence"
  bottom: "class8_ab"
}
I0804 19:42:10.621878 27590 layer_factory.hpp:77] Creating layer data_l
I0804 19:42:10.621897 27590 net.cpp:84] Creating Layer data_l
I0804 19:42:10.621909 27590 net.cpp:380] data_l -> data_l
I0804 19:42:10.632519 27590 net.cpp:122] Setting up data_l
I0804 19:42:10.632561 27590 net.cpp:129] Top shape: 1 1 224 224 (50176)
I0804 19:42:10.632573 27590 net.cpp:137] Memory required for data: 200704
I0804 19:42:10.632586 27590 layer_factory.hpp:77] Creating layer bw_conv1_1
I0804 19:42:10.632609 27590 net.cpp:84] Creating Layer bw_conv1_1
I0804 19:42:10.632622 27590 net.cpp:406] bw_conv1_1 <- data_l
I0804 19:42:10.632635 27590 net.cpp:380] bw_conv1_1 -> conv1_1
I0804 19:42:10.634754 27590 net.cpp:122] Setting up bw_conv1_1
I0804 19:42:10.634788 27590 net.cpp:129] Top shape: 1 64 224 224 (3211264)
I0804 19:42:10.634799 27590 net.cpp:137] Memory required for data: 13045760
I0804 19:42:10.634819 27590 layer_factory.hpp:77] Creating layer relu1_1
I0804 19:42:10.634837 27590 net.cpp:84] Creating Layer relu1_1
I0804 19:42:10.634848 27590 net.cpp:406] relu1_1 <- conv1_1
I0804 19:42:10.634862 27590 net.cpp:367] relu1_1 -> conv1_1 (in-place)
I0804 19:42:10.634877 27590 net.cpp:122] Setting up relu1_1
I0804 19:42:10.634889 27590 net.cpp:129] Top shape: 1 64 224 224 (3211264)
I0804 19:42:10.634901 27590 net.cpp:137] Memory required for data: 25890816
I0804 19:42:10.634910 27590 layer_factory.hpp:77] Creating layer conv1_2
I0804 19:42:10.634925 27590 net.cpp:84] Creating Layer conv1_2
I0804 19:42:10.634935 27590 net.cpp:406] conv1_2 <- conv1_1
I0804 19:42:10.634949 27590 net.cpp:380] conv1_2 -> conv1_2
I0804 19:42:10.636019 27590 net.cpp:122] Setting up conv1_2
I0804 19:42:10.636044 27590 net.cpp:129] Top shape: 1 64 112 112 (802816)
I0804 19:42:10.636054 27590 net.cpp:137] Memory required for data: 29102080
I0804 19:42:10.636072 27590 layer_factory.hpp:77] Creating layer relu1_2
I0804 19:42:10.636087 27590 net.cpp:84] Creating Layer relu1_2
I0804 19:42:10.636098 27590 net.cpp:406] relu1_2 <- conv1_2
I0804 19:42:10.636111 27590 net.cpp:367] relu1_2 -> conv1_2 (in-place)
I0804 19:42:10.636126 27590 net.cpp:122] Setting up relu1_2
I0804 19:42:10.636137 27590 net.cpp:129] Top shape: 1 64 112 112 (802816)
I0804 19:42:10.636148 27590 net.cpp:137] Memory required for data: 32313344
I0804 19:42:10.636158 27590 layer_factory.hpp:77] Creating layer conv1_2norm
I0804 19:42:10.636173 27590 net.cpp:84] Creating Layer conv1_2norm
I0804 19:42:10.636183 27590 net.cpp:406] conv1_2norm <- conv1_2
I0804 19:42:10.636196 27590 net.cpp:380] conv1_2norm -> conv1_2norm
I0804 19:42:10.636391 27590 net.cpp:122] Setting up conv1_2norm
I0804 19:42:10.636406 27590 net.cpp:129] Top shape: 1 64 112 112 (802816)
I0804 19:42:10.636416 27590 net.cpp:137] Memory required for data: 35524608
I0804 19:42:10.636433 27590 layer_factory.hpp:77] Creating layer conv2_1
I0804 19:42:10.636448 27590 net.cpp:84] Creating Layer conv2_1
I0804 19:42:10.636459 27590 net.cpp:406] conv2_1 <- conv1_2norm
I0804 19:42:10.636489 27590 net.cpp:380] conv2_1 -> conv2_1
I0804 19:42:10.637596 27590 net.cpp:122] Setting up conv2_1
I0804 19:42:10.637624 27590 net.cpp:129] Top shape: 1 128 112 112 (1605632)
I0804 19:42:10.637634 27590 net.cpp:137] Memory required for data: 41947136
I0804 19:42:10.637652 27590 layer_factory.hpp:77] Creating layer relu2_1
I0804 19:42:10.637666 27590 net.cpp:84] Creating Layer relu2_1
I0804 19:42:10.637678 27590 net.cpp:406] relu2_1 <- conv2_1
I0804 19:42:10.637691 27590 net.cpp:367] relu2_1 -> conv2_1 (in-place)
I0804 19:42:10.637704 27590 net.cpp:122] Setting up relu2_1
I0804 19:42:10.637715 27590 net.cpp:129] Top shape: 1 128 112 112 (1605632)
I0804 19:42:10.637727 27590 net.cpp:137] Memory required for data: 48369664
I0804 19:42:10.637737 27590 layer_factory.hpp:77] Creating layer conv2_2
I0804 19:42:10.637753 27590 net.cpp:84] Creating Layer conv2_2
I0804 19:42:10.637763 27590 net.cpp:406] conv2_2 <- conv2_1
I0804 19:42:10.637778 27590 net.cpp:380] conv2_2 -> conv2_2
I0804 19:42:10.638890 27590 net.cpp:122] Setting up conv2_2
I0804 19:42:10.638952 27590 net.cpp:129] Top shape: 1 128 56 56 (401408)
I0804 19:42:10.638963 27590 net.cpp:137] Memory required for data: 49975296
I0804 19:42:10.638978 27590 layer_factory.hpp:77] Creating layer relu2_2
I0804 19:42:10.638993 27590 net.cpp:84] Creating Layer relu2_2
I0804 19:42:10.639004 27590 net.cpp:406] relu2_2 <- conv2_2
I0804 19:42:10.639016 27590 net.cpp:367] relu2_2 -> conv2_2 (in-place)
I0804 19:42:10.639030 27590 net.cpp:122] Setting up relu2_2
I0804 19:42:10.639042 27590 net.cpp:129] Top shape: 1 128 56 56 (401408)
I0804 19:42:10.639052 27590 net.cpp:137] Memory required for data: 51580928
I0804 19:42:10.639062 27590 layer_factory.hpp:77] Creating layer conv2_2norm
I0804 19:42:10.639077 27590 net.cpp:84] Creating Layer conv2_2norm
I0804 19:42:10.639087 27590 net.cpp:406] conv2_2norm <- conv2_2
I0804 19:42:10.639152 27590 net.cpp:380] conv2_2norm -> conv2_2norm
I0804 19:42:10.639350 27590 net.cpp:122] Setting up conv2_2norm
I0804 19:42:10.639366 27590 net.cpp:129] Top shape: 1 128 56 56 (401408)
I0804 19:42:10.639376 27590 net.cpp:137] Memory required for data: 53186560
I0804 19:42:10.639391 27590 layer_factory.hpp:77] Creating layer conv3_1
I0804 19:42:10.639407 27590 net.cpp:84] Creating Layer conv3_1
I0804 19:42:10.639418 27590 net.cpp:406] conv3_1 <- conv2_2norm
I0804 19:42:10.639430 27590 net.cpp:380] conv3_1 -> conv3_1
I0804 19:42:10.639890 27590 net.cpp:122] Setting up conv3_1
I0804 19:42:10.639907 27590 net.cpp:129] Top shape: 1 256 56 56 (802816)
I0804 19:42:10.639919 27590 net.cpp:137] Memory required for data: 56397824
I0804 19:42:10.639931 27590 layer_factory.hpp:77] Creating layer relu3_1
I0804 19:42:10.639945 27590 net.cpp:84] Creating Layer relu3_1
I0804 19:42:10.639955 27590 net.cpp:406] relu3_1 <- conv3_1
I0804 19:42:10.639968 27590 net.cpp:367] relu3_1 -> conv3_1 (in-place)
I0804 19:42:10.639981 27590 net.cpp:122] Setting up relu3_1
I0804 19:42:10.639993 27590 net.cpp:129] Top shape: 1 256 56 56 (802816)
I0804 19:42:10.640003 27590 net.cpp:137] Memory required for data: 59609088
I0804 19:42:10.640013 27590 layer_factory.hpp:77] Creating layer conv3_2
I0804 19:42:10.640027 27590 net.cpp:84] Creating Layer conv3_2
I0804 19:42:10.640038 27590 net.cpp:406] conv3_2 <- conv3_1
I0804 19:42:10.640050 27590 net.cpp:380] conv3_2 -> conv3_2
I0804 19:42:10.641615 27590 net.cpp:122] Setting up conv3_2
I0804 19:42:10.641646 27590 net.cpp:129] Top shape: 1 256 56 56 (802816)
I0804 19:42:10.641657 27590 net.cpp:137] Memory required for data: 62820352
I0804 19:42:10.641724 27590 layer_factory.hpp:77] Creating layer relu3_2
I0804 19:42:10.641741 27590 net.cpp:84] Creating Layer relu3_2
I0804 19:42:10.641752 27590 net.cpp:406] relu3_2 <- conv3_2
I0804 19:42:10.641767 27590 net.cpp:367] relu3_2 -> conv3_2 (in-place)
I0804 19:42:10.641780 27590 net.cpp:122] Setting up relu3_2
I0804 19:42:10.641791 27590 net.cpp:129] Top shape: 1 256 56 56 (802816)
I0804 19:42:10.641803 27590 net.cpp:137] Memory required for data: 66031616
I0804 19:42:10.641813 27590 layer_factory.hpp:77] Creating layer conv3_3
I0804 19:42:10.641834 27590 net.cpp:84] Creating Layer conv3_3
I0804 19:42:10.641846 27590 net.cpp:406] conv3_3 <- conv3_2
I0804 19:42:10.641860 27590 net.cpp:380] conv3_3 -> conv3_3
I0804 19:42:10.643422 27590 net.cpp:122] Setting up conv3_3
I0804 19:42:10.643491 27590 net.cpp:129] Top shape: 1 256 28 28 (200704)
I0804 19:42:10.643502 27590 net.cpp:137] Memory required for data: 66834432
I0804 19:42:10.643517 27590 layer_factory.hpp:77] Creating layer relu3_3
I0804 19:42:10.643535 27590 net.cpp:84] Creating Layer relu3_3
I0804 19:42:10.643546 27590 net.cpp:406] relu3_3 <- conv3_3
I0804 19:42:10.643559 27590 net.cpp:367] relu3_3 -> conv3_3 (in-place)
I0804 19:42:10.643573 27590 net.cpp:122] Setting up relu3_3
I0804 19:42:10.643584 27590 net.cpp:129] Top shape: 1 256 28 28 (200704)
I0804 19:42:10.643594 27590 net.cpp:137] Memory required for data: 67637248
I0804 19:42:10.643605 27590 layer_factory.hpp:77] Creating layer conv3_3norm
I0804 19:42:10.643618 27590 net.cpp:84] Creating Layer conv3_3norm
I0804 19:42:10.643630 27590 net.cpp:406] conv3_3norm <- conv3_3
I0804 19:42:10.643643 27590 net.cpp:380] conv3_3norm -> conv3_3norm
I0804 19:42:10.643836 27590 net.cpp:122] Setting up conv3_3norm
I0804 19:42:10.643851 27590 net.cpp:129] Top shape: 1 256 28 28 (200704)
I0804 19:42:10.643860 27590 net.cpp:137] Memory required for data: 68440064
I0804 19:42:10.643875 27590 layer_factory.hpp:77] Creating layer conv4_1
I0804 19:42:10.643893 27590 net.cpp:84] Creating Layer conv4_1
I0804 19:42:10.643903 27590 net.cpp:406] conv4_1 <- conv3_3norm
I0804 19:42:10.643916 27590 net.cpp:380] conv4_1 -> conv4_1
I0804 19:42:10.646618 27590 net.cpp:122] Setting up conv4_1
I0804 19:42:10.646658 27590 net.cpp:129] Top shape: 1 512 28 28 (401408)
I0804 19:42:10.646670 27590 net.cpp:137] Memory required for data: 70045696
I0804 19:42:10.646685 27590 layer_factory.hpp:77] Creating layer relu4_1
I0804 19:42:10.646700 27590 net.cpp:84] Creating Layer relu4_1
I0804 19:42:10.646711 27590 net.cpp:406] relu4_1 <- conv4_1
I0804 19:42:10.646725 27590 net.cpp:367] relu4_1 -> conv4_1 (in-place)
I0804 19:42:10.646740 27590 net.cpp:122] Setting up relu4_1
I0804 19:42:10.646752 27590 net.cpp:129] Top shape: 1 512 28 28 (401408)
I0804 19:42:10.646762 27590 net.cpp:137] Memory required for data: 71651328
I0804 19:42:10.646772 27590 layer_factory.hpp:77] Creating layer conv4_2
I0804 19:42:10.646788 27590 net.cpp:84] Creating Layer conv4_2
I0804 19:42:10.646800 27590 net.cpp:406] conv4_2 <- conv4_1
I0804 19:42:10.646811 27590 net.cpp:380] conv4_2 -> conv4_2
I0804 19:42:10.652024 27590 net.cpp:122] Setting up conv4_2
I0804 19:42:10.652070 27590 net.cpp:129] Top shape: 1 512 28 28 (401408)
I0804 19:42:10.652082 27590 net.cpp:137] Memory required for data: 73256960
I0804 19:42:10.652098 27590 layer_factory.hpp:77] Creating layer relu4_2
I0804 19:42:10.652115 27590 net.cpp:84] Creating Layer relu4_2
I0804 19:42:10.652127 27590 net.cpp:406] relu4_2 <- conv4_2
I0804 19:42:10.652140 27590 net.cpp:367] relu4_2 -> conv4_2 (in-place)
I0804 19:42:10.652156 27590 net.cpp:122] Setting up relu4_2
I0804 19:42:10.652168 27590 net.cpp:129] Top shape: 1 512 28 28 (401408)
I0804 19:42:10.652179 27590 net.cpp:137] Memory required for data: 74862592
I0804 19:42:10.652189 27590 layer_factory.hpp:77] Creating layer conv4_3
I0804 19:42:10.652202 27590 net.cpp:84] Creating Layer conv4_3
I0804 19:42:10.652214 27590 net.cpp:406] conv4_3 <- conv4_2
I0804 19:42:10.652230 27590 net.cpp:380] conv4_3 -> conv4_3
I0804 19:42:10.657335 27590 net.cpp:122] Setting up conv4_3
I0804 19:42:10.657379 27590 net.cpp:129] Top shape: 1 512 28 28 (401408)
I0804 19:42:10.657390 27590 net.cpp:137] Memory required for data: 76468224
I0804 19:42:10.657407 27590 layer_factory.hpp:77] Creating layer relu4_3
I0804 19:42:10.657424 27590 net.cpp:84] Creating Layer relu4_3
I0804 19:42:10.657436 27590 net.cpp:406] relu4_3 <- conv4_3
I0804 19:42:10.657449 27590 net.cpp:367] relu4_3 -> conv4_3 (in-place)
I0804 19:42:10.657464 27590 net.cpp:122] Setting up relu4_3
I0804 19:42:10.657492 27590 net.cpp:129] Top shape: 1 512 28 28 (401408)
I0804 19:42:10.657507 27590 net.cpp:137] Memory required for data: 78073856
I0804 19:42:10.657517 27590 layer_factory.hpp:77] Creating layer conv4_3norm
I0804 19:42:10.657531 27590 net.cpp:84] Creating Layer conv4_3norm
I0804 19:42:10.657541 27590 net.cpp:406] conv4_3norm <- conv4_3
I0804 19:42:10.657554 27590 net.cpp:380] conv4_3norm -> conv4_3norm
I0804 19:42:10.657757 27590 net.cpp:122] Setting up conv4_3norm
I0804 19:42:10.657771 27590 net.cpp:129] Top shape: 1 512 28 28 (401408)
I0804 19:42:10.657781 27590 net.cpp:137] Memory required for data: 79679488
I0804 19:42:10.657795 27590 layer_factory.hpp:77] Creating layer conv5_1
I0804 19:42:10.657810 27590 net.cpp:84] Creating Layer conv5_1
I0804 19:42:10.657821 27590 net.cpp:406] conv5_1 <- conv4_3norm
I0804 19:42:10.657836 27590 net.cpp:380] conv5_1 -> conv5_1
I0804 19:42:10.662909 27590 net.cpp:122] Setting up conv5_1
I0804 19:42:10.662955 27590 net.cpp:129] Top shape: 1 512 28 28 (401408)
I0804 19:42:10.662966 27590 net.cpp:137] Memory required for data: 81285120
I0804 19:42:10.662988 27590 layer_factory.hpp:77] Creating layer relu5_1
I0804 19:42:10.663007 27590 net.cpp:84] Creating Layer relu5_1
I0804 19:42:10.663018 27590 net.cpp:406] relu5_1 <- conv5_1
I0804 19:42:10.663031 27590 net.cpp:367] relu5_1 -> conv5_1 (in-place)
I0804 19:42:10.663046 27590 net.cpp:122] Setting up relu5_1
I0804 19:42:10.663058 27590 net.cpp:129] Top shape: 1 512 28 28 (401408)
I0804 19:42:10.663069 27590 net.cpp:137] Memory required for data: 82890752
I0804 19:42:10.663079 27590 layer_factory.hpp:77] Creating layer conv5_2
I0804 19:42:10.663097 27590 net.cpp:84] Creating Layer conv5_2
I0804 19:42:10.663107 27590 net.cpp:406] conv5_2 <- conv5_1
I0804 19:42:10.663120 27590 net.cpp:380] conv5_2 -> conv5_2
I0804 19:42:10.668066 27590 net.cpp:122] Setting up conv5_2
I0804 19:42:10.668113 27590 net.cpp:129] Top shape: 1 512 28 28 (401408)
I0804 19:42:10.668125 27590 net.cpp:137] Memory required for data: 84496384
I0804 19:42:10.668140 27590 layer_factory.hpp:77] Creating layer relu5_2
I0804 19:42:10.668159 27590 net.cpp:84] Creating Layer relu5_2
I0804 19:42:10.668170 27590 net.cpp:406] relu5_2 <- conv5_2
I0804 19:42:10.668182 27590 net.cpp:367] relu5_2 -> conv5_2 (in-place)
I0804 19:42:10.668197 27590 net.cpp:122] Setting up relu5_2
I0804 19:42:10.668210 27590 net.cpp:129] Top shape: 1 512 28 28 (401408)
I0804 19:42:10.668220 27590 net.cpp:137] Memory required for data: 86102016
I0804 19:42:10.668229 27590 layer_factory.hpp:77] Creating layer conv5_3
I0804 19:42:10.668246 27590 net.cpp:84] Creating Layer conv5_3
I0804 19:42:10.668256 27590 net.cpp:406] conv5_3 <- conv5_2
I0804 19:42:10.668268 27590 net.cpp:380] conv5_3 -> conv5_3
I0804 19:42:10.673223 27590 net.cpp:122] Setting up conv5_3
I0804 19:42:10.673270 27590 net.cpp:129] Top shape: 1 512 28 28 (401408)
I0804 19:42:10.673282 27590 net.cpp:137] Memory required for data: 87707648
I0804 19:42:10.673297 27590 layer_factory.hpp:77] Creating layer relu5_3
I0804 19:42:10.673312 27590 net.cpp:84] Creating Layer relu5_3
I0804 19:42:10.673324 27590 net.cpp:406] relu5_3 <- conv5_3
I0804 19:42:10.673338 27590 net.cpp:367] relu5_3 -> conv5_3 (in-place)
I0804 19:42:10.673353 27590 net.cpp:122] Setting up relu5_3
I0804 19:42:10.673365 27590 net.cpp:129] Top shape: 1 512 28 28 (401408)
I0804 19:42:10.673375 27590 net.cpp:137] Memory required for data: 89313280
I0804 19:42:10.673385 27590 layer_factory.hpp:77] Creating layer conv5_3norm
I0804 19:42:10.673400 27590 net.cpp:84] Creating Layer conv5_3norm
I0804 19:42:10.673410 27590 net.cpp:406] conv5_3norm <- conv5_3
I0804 19:42:10.673424 27590 net.cpp:380] conv5_3norm -> conv5_3norm
I0804 19:42:10.673624 27590 net.cpp:122] Setting up conv5_3norm
I0804 19:42:10.673640 27590 net.cpp:129] Top shape: 1 512 28 28 (401408)
I0804 19:42:10.673650 27590 net.cpp:137] Memory required for data: 90918912
I0804 19:42:10.673663 27590 layer_factory.hpp:77] Creating layer conv6_1
I0804 19:42:10.673683 27590 net.cpp:84] Creating Layer conv6_1
I0804 19:42:10.673712 27590 net.cpp:406] conv6_1 <- conv5_3norm
I0804 19:42:10.673724 27590 net.cpp:380] conv6_1 -> conv6_1
I0804 19:42:10.678587 27590 net.cpp:122] Setting up conv6_1
I0804 19:42:10.678632 27590 net.cpp:129] Top shape: 1 512 28 28 (401408)
I0804 19:42:10.678643 27590 net.cpp:137] Memory required for data: 92524544
I0804 19:42:10.678659 27590 layer_factory.hpp:77] Creating layer relu6_1
I0804 19:42:10.678674 27590 net.cpp:84] Creating Layer relu6_1
I0804 19:42:10.678686 27590 net.cpp:406] relu6_1 <- conv6_1
I0804 19:42:10.678701 27590 net.cpp:367] relu6_1 -> conv6_1 (in-place)
I0804 19:42:10.678716 27590 net.cpp:122] Setting up relu6_1
I0804 19:42:10.678728 27590 net.cpp:129] Top shape: 1 512 28 28 (401408)
I0804 19:42:10.678738 27590 net.cpp:137] Memory required for data: 94130176
I0804 19:42:10.678748 27590 layer_factory.hpp:77] Creating layer conv6_2
I0804 19:42:10.678764 27590 net.cpp:84] Creating Layer conv6_2
I0804 19:42:10.678776 27590 net.cpp:406] conv6_2 <- conv6_1
I0804 19:42:10.678788 27590 net.cpp:380] conv6_2 -> conv6_2
I0804 19:42:10.683681 27590 net.cpp:122] Setting up conv6_2
I0804 19:42:10.683725 27590 net.cpp:129] Top shape: 1 512 28 28 (401408)
I0804 19:42:10.683737 27590 net.cpp:137] Memory required for data: 95735808
I0804 19:42:10.683753 27590 layer_factory.hpp:77] Creating layer relu6_2
I0804 19:42:10.683768 27590 net.cpp:84] Creating Layer relu6_2
I0804 19:42:10.683780 27590 net.cpp:406] relu6_2 <- conv6_2
I0804 19:42:10.683794 27590 net.cpp:367] relu6_2 -> conv6_2 (in-place)
I0804 19:42:10.683809 27590 net.cpp:122] Setting up relu6_2
I0804 19:42:10.683820 27590 net.cpp:129] Top shape: 1 512 28 28 (401408)
I0804 19:42:10.683831 27590 net.cpp:137] Memory required for data: 97341440
I0804 19:42:10.683841 27590 layer_factory.hpp:77] Creating layer conv6_3
I0804 19:42:10.683856 27590 net.cpp:84] Creating Layer conv6_3
I0804 19:42:10.683866 27590 net.cpp:406] conv6_3 <- conv6_2
I0804 19:42:10.683881 27590 net.cpp:380] conv6_3 -> conv6_3
I0804 19:42:10.688747 27590 net.cpp:122] Setting up conv6_3
I0804 19:42:10.688793 27590 net.cpp:129] Top shape: 1 512 28 28 (401408)
I0804 19:42:10.688804 27590 net.cpp:137] Memory required for data: 98947072
I0804 19:42:10.688819 27590 layer_factory.hpp:77] Creating layer relu6_3
I0804 19:42:10.688838 27590 net.cpp:84] Creating Layer relu6_3
I0804 19:42:10.688849 27590 net.cpp:406] relu6_3 <- conv6_3
I0804 19:42:10.688863 27590 net.cpp:367] relu6_3 -> conv6_3 (in-place)
I0804 19:42:10.688876 27590 net.cpp:122] Setting up relu6_3
I0804 19:42:10.688889 27590 net.cpp:129] Top shape: 1 512 28 28 (401408)
I0804 19:42:10.688899 27590 net.cpp:137] Memory required for data: 100552704
I0804 19:42:10.688910 27590 layer_factory.hpp:77] Creating layer conv6_3norm
I0804 19:42:10.688925 27590 net.cpp:84] Creating Layer conv6_3norm
I0804 19:42:10.688935 27590 net.cpp:406] conv6_3norm <- conv6_3
I0804 19:42:10.688947 27590 net.cpp:380] conv6_3norm -> conv6_3norm
I0804 19:42:10.689162 27590 net.cpp:122] Setting up conv6_3norm
I0804 19:42:10.689179 27590 net.cpp:129] Top shape: 1 512 28 28 (401408)
I0804 19:42:10.689190 27590 net.cpp:137] Memory required for data: 102158336
I0804 19:42:10.689204 27590 layer_factory.hpp:77] Creating layer conv7_1
I0804 19:42:10.689219 27590 net.cpp:84] Creating Layer conv7_1
I0804 19:42:10.689230 27590 net.cpp:406] conv7_1 <- conv6_3norm
I0804 19:42:10.689244 27590 net.cpp:380] conv7_1 -> conv7_1
I0804 19:42:10.694128 27590 net.cpp:122] Setting up conv7_1
I0804 19:42:10.694175 27590 net.cpp:129] Top shape: 1 512 28 28 (401408)
I0804 19:42:10.694186 27590 net.cpp:137] Memory required for data: 103763968
I0804 19:42:10.694202 27590 layer_factory.hpp:77] Creating layer relu7_1
I0804 19:42:10.694218 27590 net.cpp:84] Creating Layer relu7_1
I0804 19:42:10.694229 27590 net.cpp:406] relu7_1 <- conv7_1
I0804 19:42:10.694244 27590 net.cpp:367] relu7_1 -> conv7_1 (in-place)
I0804 19:42:10.694259 27590 net.cpp:122] Setting up relu7_1
I0804 19:42:10.694272 27590 net.cpp:129] Top shape: 1 512 28 28 (401408)
I0804 19:42:10.694281 27590 net.cpp:137] Memory required for data: 105369600
I0804 19:42:10.694310 27590 layer_factory.hpp:77] Creating layer conv7_2
I0804 19:42:10.694325 27590 net.cpp:84] Creating Layer conv7_2
I0804 19:42:10.694335 27590 net.cpp:406] conv7_2 <- conv7_1
I0804 19:42:10.694350 27590 net.cpp:380] conv7_2 -> conv7_2
I0804 19:42:10.699260 27590 net.cpp:122] Setting up conv7_2
I0804 19:42:10.699307 27590 net.cpp:129] Top shape: 1 512 28 28 (401408)
I0804 19:42:10.699318 27590 net.cpp:137] Memory required for data: 106975232
I0804 19:42:10.699333 27590 layer_factory.hpp:77] Creating layer relu7_2
I0804 19:42:10.699352 27590 net.cpp:84] Creating Layer relu7_2
I0804 19:42:10.699363 27590 net.cpp:406] relu7_2 <- conv7_2
I0804 19:42:10.699376 27590 net.cpp:367] relu7_2 -> conv7_2 (in-place)
I0804 19:42:10.699391 27590 net.cpp:122] Setting up relu7_2
I0804 19:42:10.699404 27590 net.cpp:129] Top shape: 1 512 28 28 (401408)
I0804 19:42:10.699414 27590 net.cpp:137] Memory required for data: 108580864
I0804 19:42:10.699424 27590 layer_factory.hpp:77] Creating layer conv7_3
I0804 19:42:10.699440 27590 net.cpp:84] Creating Layer conv7_3
I0804 19:42:10.699450 27590 net.cpp:406] conv7_3 <- conv7_2
I0804 19:42:10.699463 27590 net.cpp:380] conv7_3 -> conv7_3
I0804 19:42:10.704349 27590 net.cpp:122] Setting up conv7_3
I0804 19:42:10.704396 27590 net.cpp:129] Top shape: 1 512 28 28 (401408)
I0804 19:42:10.704407 27590 net.cpp:137] Memory required for data: 110186496
I0804 19:42:10.704422 27590 layer_factory.hpp:77] Creating layer relu7_3
I0804 19:42:10.704439 27590 net.cpp:84] Creating Layer relu7_3
I0804 19:42:10.704452 27590 net.cpp:406] relu7_3 <- conv7_3
I0804 19:42:10.704464 27590 net.cpp:367] relu7_3 -> conv7_3 (in-place)
I0804 19:42:10.704478 27590 net.cpp:122] Setting up relu7_3
I0804 19:42:10.704490 27590 net.cpp:129] Top shape: 1 512 28 28 (401408)
I0804 19:42:10.704500 27590 net.cpp:137] Memory required for data: 111792128
I0804 19:42:10.704511 27590 layer_factory.hpp:77] Creating layer conv7_3norm
I0804 19:42:10.704526 27590 net.cpp:84] Creating Layer conv7_3norm
I0804 19:42:10.704537 27590 net.cpp:406] conv7_3norm <- conv7_3
I0804 19:42:10.704550 27590 net.cpp:380] conv7_3norm -> conv7_3norm
I0804 19:42:10.704764 27590 net.cpp:122] Setting up conv7_3norm
I0804 19:42:10.704779 27590 net.cpp:129] Top shape: 1 512 28 28 (401408)
I0804 19:42:10.704790 27590 net.cpp:137] Memory required for data: 113397760
I0804 19:42:10.704804 27590 layer_factory.hpp:77] Creating layer conv8_1
I0804 19:42:10.704818 27590 net.cpp:84] Creating Layer conv8_1
I0804 19:42:10.704829 27590 net.cpp:406] conv8_1 <- conv7_3norm
I0804 19:42:10.704843 27590 net.cpp:380] conv8_1 -> conv8_1
I0804 19:42:10.709282 27590 net.cpp:122] Setting up conv8_1
I0804 19:42:10.709329 27590 net.cpp:129] Top shape: 1 256 56 56 (802816)
I0804 19:42:10.709341 27590 net.cpp:137] Memory required for data: 116609024
I0804 19:42:10.709357 27590 layer_factory.hpp:77] Creating layer relu8_1
I0804 19:42:10.709373 27590 net.cpp:84] Creating Layer relu8_1
I0804 19:42:10.709385 27590 net.cpp:406] relu8_1 <- conv8_1
I0804 19:42:10.709398 27590 net.cpp:367] relu8_1 -> conv8_1 (in-place)
I0804 19:42:10.709414 27590 net.cpp:122] Setting up relu8_1
I0804 19:42:10.709426 27590 net.cpp:129] Top shape: 1 256 56 56 (802816)
I0804 19:42:10.709436 27590 net.cpp:137] Memory required for data: 119820288
I0804 19:42:10.709446 27590 layer_factory.hpp:77] Creating layer conv8_2
I0804 19:42:10.709461 27590 net.cpp:84] Creating Layer conv8_2
I0804 19:42:10.709471 27590 net.cpp:406] conv8_2 <- conv8_1
I0804 19:42:10.709486 27590 net.cpp:380] conv8_2 -> conv8_2
I0804 19:42:10.711112 27590 net.cpp:122] Setting up conv8_2
I0804 19:42:10.711136 27590 net.cpp:129] Top shape: 1 256 56 56 (802816)
I0804 19:42:10.711148 27590 net.cpp:137] Memory required for data: 123031552
I0804 19:42:10.711161 27590 layer_factory.hpp:77] Creating layer relu8_2
I0804 19:42:10.711175 27590 net.cpp:84] Creating Layer relu8_2
I0804 19:42:10.711186 27590 net.cpp:406] relu8_2 <- conv8_2
I0804 19:42:10.711199 27590 net.cpp:367] relu8_2 -> conv8_2 (in-place)
I0804 19:42:10.711213 27590 net.cpp:122] Setting up relu8_2
I0804 19:42:10.711241 27590 net.cpp:129] Top shape: 1 256 56 56 (802816)
I0804 19:42:10.711252 27590 net.cpp:137] Memory required for data: 126242816
I0804 19:42:10.711262 27590 layer_factory.hpp:77] Creating layer conv8_3
I0804 19:42:10.711277 27590 net.cpp:84] Creating Layer conv8_3
I0804 19:42:10.711288 27590 net.cpp:406] conv8_3 <- conv8_2
I0804 19:42:10.711300 27590 net.cpp:380] conv8_3 -> conv8_3
I0804 19:42:10.712890 27590 net.cpp:122] Setting up conv8_3
I0804 19:42:10.712920 27590 net.cpp:129] Top shape: 1 256 56 56 (802816)
I0804 19:42:10.712931 27590 net.cpp:137] Memory required for data: 129454080
I0804 19:42:10.712954 27590 layer_factory.hpp:77] Creating layer relu8_3
I0804 19:42:10.712968 27590 net.cpp:84] Creating Layer relu8_3
I0804 19:42:10.712980 27590 net.cpp:406] relu8_3 <- conv8_3
I0804 19:42:10.712992 27590 net.cpp:367] relu8_3 -> conv8_3 (in-place)
I0804 19:42:10.713016 27590 net.cpp:122] Setting up relu8_3
I0804 19:42:10.713032 27590 net.cpp:129] Top shape: 1 256 56 56 (802816)
I0804 19:42:10.713043 27590 net.cpp:137] Memory required for data: 132665344
I0804 19:42:10.713053 27590 layer_factory.hpp:77] Creating layer conv8_313
I0804 19:42:10.713069 27590 net.cpp:84] Creating Layer conv8_313
I0804 19:42:10.713079 27590 net.cpp:406] conv8_313 <- conv8_3
I0804 19:42:10.713093 27590 net.cpp:380] conv8_313 -> conv8_313
I0804 19:42:10.714274 27590 net.cpp:122] Setting up conv8_313
I0804 19:42:10.714298 27590 net.cpp:129] Top shape: 1 313 56 56 (981568)
I0804 19:42:10.714308 27590 net.cpp:137] Memory required for data: 136591616
I0804 19:42:10.714323 27590 layer_factory.hpp:77] Creating layer conv8_313_rh
I0804 19:42:10.714339 27590 net.cpp:84] Creating Layer conv8_313_rh
I0804 19:42:10.714350 27590 net.cpp:406] conv8_313_rh <- conv8_313
I0804 19:42:10.714365 27590 net.cpp:380] conv8_313_rh -> conv8_313_rh
I0804 19:42:10.714470 27590 net.cpp:122] Setting up conv8_313_rh
I0804 19:42:10.714484 27590 net.cpp:129] Top shape: 1 313 56 56 (981568)
I0804 19:42:10.714495 27590 net.cpp:137] Memory required for data: 140517888
I0804 19:42:10.714506 27590 layer_factory.hpp:77] Creating layer class8_313_rh
I0804 19:42:10.714520 27590 net.cpp:84] Creating Layer class8_313_rh
I0804 19:42:10.714531 27590 net.cpp:406] class8_313_rh <- conv8_313_rh
I0804 19:42:10.714545 27590 net.cpp:380] class8_313_rh -> class8_313_rh
I0804 19:42:10.714614 27590 net.cpp:122] Setting up class8_313_rh
I0804 19:42:10.714630 27590 net.cpp:129] Top shape: 1 313 56 56 (981568)
I0804 19:42:10.714640 27590 net.cpp:137] Memory required for data: 144444160
I0804 19:42:10.714651 27590 layer_factory.hpp:77] Creating layer class8_ab
I0804 19:42:10.714665 27590 net.cpp:84] Creating Layer class8_ab
I0804 19:42:10.714675 27590 net.cpp:406] class8_ab <- class8_313_rh
I0804 19:42:10.714689 27590 net.cpp:380] class8_ab -> class8_ab
I0804 19:42:10.714916 27590 net.cpp:122] Setting up class8_ab
I0804 19:42:10.714931 27590 net.cpp:129] Top shape: 1 2 56 56 (6272)
I0804 19:42:10.714942 27590 net.cpp:137] Memory required for data: 144469248
I0804 19:42:10.714954 27590 layer_factory.hpp:77] Creating layer Silence
I0804 19:42:10.714967 27590 net.cpp:84] Creating Layer Silence
I0804 19:42:10.714977 27590 net.cpp:406] Silence <- class8_ab
I0804 19:42:10.714988 27590 net.cpp:122] Setting up Silence
I0804 19:42:10.714998 27590 net.cpp:137] Memory required for data: 144469248
…
